Maze models/maze_model_bet.pth (torch, 22521 bytes, 5 tensors)

net.0.weight f4 [16, 1, 3, 3]
0	0x3eb552c0	0.35414696
1	0x3e2f778e	0.1713545
2	0x3eaee394	0.34158003
3	0x3f64ddbf	0.8940086
4	0x3dd95751	0.106123574
5	0xbedff690	-0.437428
6	0x3ecd5c72	0.40109593
7	0x3ec02e1a	0.37535173
8	0xbf836583	-1.0265354
9	0xbeac6fd5	-0.3367907
10	0x3d2fc53a	0.0429127
11	0x3e8449dd	0.25837603
12	0xbf82a4d8	-1.0206556
13	0xbeec1431	-0.46109155
14	0xbf84ef89	-1.03856
15	0x3ec42d18	0.38315654
16	0x3ebef9ac	0.3729986
17	0x3da3ec2a	0.08004029
18	0x3efd033a	0.49416524
19	0xbdf2d6cd	-0.11857376
20	0xbe3c54d3	-0.18391733
21	0xbf70d53c	-0.9407537
22	0x3e85a82d	0.2610487
23	0x3decadc1	0.115565784
24	0xbf1bb9b7	-0.60830253
25	0xbf259f17	-0.64695877
26	0x3f1957a8	0.5989938
27	0x3d669f0d	0.056304026
28	0x3ee16b22	0.44027048
29	0x3e17c332	0.14820555
30	0x3f16e149	0.5893751
31	0xbf74b2ad	-0.9558514
32	0xbd4d4186	-0.050111316
33	0xbf33c818	-0.70227194
34	0xbe5d8c2f	-0.21635507
35	0x3e6eeb91	0.23332049
36	0xbe716d0c	-0.23576754
37	0x3f0ac3dc	0.5420511
38	0x3e8c0e08	0.27354455
39	0x3e9197c9	0.28436115
40	0xbf14ad6c	-0.5807712
41	0x3e881b2c	0.2658323
42	0xbf6fdfc1	-0.93700796
43	0x3f01f237	0.50760216
44	0xbeb9234b	-0.3615974
45	0x3d8426c9	0.0645271
46	0x3ec7a3f6	0.3899228
47	0xbde0e943	-0.10981991
48	0xbf05bd4f	-0.52241987
49	0xbeb41d17	-0.35178444
50	0xbea8dc8e	-0.3298077
51	0xbf109bbc	-0.5648763
52	0x3f1aa7dd	0.6041239
53	0xbf096030	-0.53662395
54	0xbe877458	-0.2645595
55	0xbf16231c	-0.5864732
56	0xbf3fd589	-0.74935204
57	0x3e1790d9	0.14801349
58	0x3f0248a6	0.508921
59	0x3d8c1333	0.068395995
60	0xbe909494	-0.28238356
61	0x3f17998b	0.5921866
62	0xbf23fcf2	-0.6405784
63	0xbf3bef5e	-0.7341212
64	0x3f1b7868	0.607306
65	0xbf4cd958	-0.8001914
66	0x3ee718a7	0.45135996
67	0xbf990665	-1.1955076
68	0x3eeea999	0.46613768
69	0x3dcd322c	0.10019335
70	0x3f0c7858	0.5487113
71	0x3d6caafe	0.05778026
72	0xbf3185dc	-0.6934488
73	0x3e32cd7d	0.174612
74	0x3e8160a5	0.25269046
75	0x3dbcb025	0.092132844
76	0xbea9db3a	-0.3317507
77	0x3f9524c8	1.165185
78	0xbf8440f2	-1.033232
79	0x3f55bf44	0.83494973
80	0x3dd53fc9	0.10412557
81	0x3ce0d33e	0.027444478
82	0xbef86708	-0.48516107
83	0xbf27f340	-0.65605545
84	0x3dfc3063	0.123139165
85	0xbee4c778	-0.44683433
86	0x3ee63a95	0.4496657
87	0x3e8be430	0.2732253
88	0xbf730815	-0.9493421
89	0xbf2c3a59	-0.6727653
90	0xbf0392c2	-0.5139581
91	0x3eaf96de	0.3429479
92	0xbf26b22a	-0.65115607
93	0xbe844ac1	-0.25838283
94	0x3e80f2e9	0.25185326
95	0xbf4d3b8e	-0.80169
96	0x3e14262a	0.14467683
97	0xbf5da21a	-0.8657547
98	0x3d9c4c5b	0.07631751
99	0x3e1e3360	0.15449286
100	0xbf2267aa	-0.6343943
101	0xbf357c40	-0.70892715
102	0x3ec80884	0.39068997
103	0x3df27092	0.11837877
104	0x3d3806a0	0.044928193
105	0x3eb4de02	0.3532563
106	0x3f3ebc03	0.74505633
107	0x3f0cb0e7	0.5495743
108	0xbf9939b9	-1.197074
109	0x3f68d470	0.90949154
110	0x3f02956e	0.5100926
111	0x3f89008a	1.070329
112	0x3f937688	1.1520548
113	0x3f81143e	1.0084302
114	0xbeb84111	-0.35987142
115	0x3f611a37	0.87930626
116	0xbf2bc363	-0.6709501
117	0xbec1d7b9	-0.37859896
118	0x3e5024a1	0.20326473
119	0xbd454600	-0.04816246
120	0xbe934700	-0.28765106
121	0x3f05b52b	0.52229565
122	0x3ed6f13c	0.41980922
123	0x3ed08ae0	0.40730953
124	0x3e6343aa	0.2219378
125	0x3f116f25	0.5681022
126	0x3f64f229	0.8943201
127	0x3f133096	0.5749601
128	0xbef44141	-0.47706035
129	0xbf2a4b39	-0.6652103
130	0x3f5a9087	0.8537678
131	0x3f94fb10	1.1639118
132	0x3e9f9f7e	0.3117637
133	0xbd9ecaab	-0.077534996
134	0xbeda840d	-0.42678872
135	0xbee77fd3	-0.4521471
136	0xbed9e49e	-0.42557234
137	0x3da73581	0.08164502
138	0x3e25057c	0.16115373
139	0xbee495a7	-0.44645426
140	0xbe52e7f1	-0.20596291
141	0xbe488b67	-0.19584428
142	0xbeee8b54	-0.46590674
143	0xbe6133e9	-0.21992458

net.0.bias f4 [16]
0	0xbf82d9fb	-1.0222772
1	0xbde31f83	-0.11089995
2	0xbbf99122	-0.007616178
3	0xbeb97671	-0.36223176
4	0xbe7bbb75	-0.24583228
5	0x3cd36a2f	0.025807468
6	0x3e6aa455	0.2291425
7	0x3cbbb790	0.022914678
8	0xbdc2b927	-0.09507971
9	0x3ed70d45	0.4200231
10	0x3f3fa081	0.74854285
11	0xbf6d1160	-0.9260464
12	0xbee92f70	-0.45544004
13	0xbf421d17	-0.7582564
14	0xbf85f4f7	-1.0465382
15	0x3f158b9d	0.5841616

net.2.weight f4 [32, 16, 3, 3]
0	0xbefc58bb	-0.49286446
1	0x3f1eb2c4	0.61991525
2	0x3f550c5d	0.8322199
3	0xbeebb890	-0.46039248
4	0xbf5370d9	-0.82594067
5	0x3f2ecdc3	0.6828272
6	0xbe974148	-0.29541993
7	0x3f297357	0.6619162
8	0x3fd21592	1.6412833
9	0x3f30db5c	0.69084716
10	0xbe96a8f9	-0.2942579
11	0xbdadc188	-0.08484179
12	0xc00c9d05	-2.1970837
13	0xbe994704	-0.29936993
14	0xbf4c4283	-0.7978899
15	0x3ec1a2cf	0.37819526
16	0x3ec68212	0.3877111
17	0xbe9c4164	-0.3051864
18	0x3fcfbf8d	1.6230332
19	0x3f9829ae	1.188772
20	0x40445261	3.067528
21	0x3fe8aa03	1.8176883
22	0x3f9dff08	1.2343454
23	0x3e0d5a9c	0.13804096
24	0xbd82d800	-0.06388855
25	0x40161885	2.3452466
26	0xbf9437fa	-1.1579583
27	0xbe63a07b	-0.22229187
28	0x3e92d360	0.2867689
29	0xc03ebc5a	-2.980246
30	0x3eccd69e	0.4000749
31	0x3ee74eac	0.4517721
32	0xbf37bfc9	-0.71777016
33	0x3eb15d8b	0.3464168
34	0xbe9fe2c7	-0.31227705
35	0x402af090	2.6709328
36	0x3fddbe17	1.7323636
37	0x3f6e06fa	0.92979395
38	0x40c5fd68	6.1871834
39	0x4016e07c	2.3574514
40	0xbf9d09b6	-1.2268589
41	0x3fba12af	1.4536952
42	0x3fa85d1e	1.3153417
43	0x3fc20c82	1.5160067
44	0x3fdd9cac	1.7313437
45	0xc02528c5	-2.5806134
46	0xbeb5df88	-0.35522103
47	0xc063a1d3	-3.556752
48	0xbf1ee61d	-0.62069875
49	0x3f9a3541	1.2047502
50	0xc013494c	-2.3013487
51	0xbfbb8d3a	-1.4652474
52	0xc0077edb	-2.1171176
53	0xbf83f6df	-1.0309714
54	0x40580953	3.375569
55	0xbe6a3d28	-0.22874892
56	0x3fb00757	1.375224
57	0x3e1eafe7	0.15496789
58	0xbe2eb807	-0.17062388
59	0x3ea52797	0.32256767
60	0x3fa44f3c	1.283668
61	0x3ea51b99	0.32247618
62	0x3fd8fc1c	1.6951938
63	0x3d480f3a	0.048842646
64	0x3f7bebe0	0.9840679
65	0x3d805617	0.0626642
66	0x3fba9ac2	1.4578478
67	0xbe00ccc8	-0.12578118
68	0x3b40f0bb	0.0029440362
69	0x40196234	2.3966188
70	0xbebaf7f7	-0.36517307
71	0x3f904b7a	1.1273034
72	0x3f697af7	0.91203254
73	0xbdcb8046	-0.099365756
74	0x3fdaf935	1.7107302
75	0x3f2db08e	0.67847526
76	0xbf52dba5	-0.823664
77	0x3ee2d608	0.44303918
78	0xbd232e29	-0.039838944
79	0xbf6c7e74	-0.9238045
80	0xbf78d0b5	-0.9719346
81	0x4007786e	2.1167254
82	0x421dbd16	39.434654
83	0x3e33ad58	0.17546594
84	0x3efde1b9	0.49586275
85	0xbd705ebe	-0.058684103
86	0xbee9a4b5	-0.45633474
87	0x3e68767d	0.2270145
88	0xbec83a29	-0.39106873
89	0xbf6a720d	-0.9158028
90	0xbe5af836	-0.21383747
91	0xc00e0c5d	-2.2195046
92	0x3ecc740b	0.39932284
93	0x3c9c56c3	0.01908434
94	0x3f53e09e	0.82764614
95	0x3f139baa	0.576594
96	0x404c71df	3.1944501
97	0xbe95cab2	-0.29256207
98	0x3fe0a526	1.7550399
99	0xbd2b421e	-0.0418111
100	0x3eb5cc03	0.3550721
101	0x3ebc059b	0.36723027
102	0xbf8cf237	-1.1011418
103	0xbd24675e	-0.04013764
104	0x3e8b9b12	0.27266747
105	0xbff48721	-1.9103738
106	0x3f912482	1.1339266
107	0xbef2edba	-0.47446996
108	0xbec29805	-0.38006607
109	0xbe130cde	-0.14360377
110	0xbdee90e2	-0.11648728
111	0xbf051185	-0.5197986
112	0x3e98dc26	0.2985546
113	0xbf4fb7e2	-0.8113996
114	0xbf0ece24	-0.55783296
115	0xbd77219a	-0.06033478
116	0xbe21761d	-0.15767713
117	0x3de20409	0.11035926
118	0x3f9c6ac4	1.2220082
119	0xbf02f8ba	-0.51160777
120	0x3e80f438	0.25186324
121	0x3f01034d	0.5039566
122	0x3ef08936	0.46979684
123	0xbfd69d9a	-1.6766846
124	0xbf5adc9f	-0.8549289
125	0x3f2be674	0.6714852
126	0xbc5a5f45	-0.013328378
127	0xbee88f24	-0.45421708
128	0xbf18f573	-0.59749526
129	0x3d07f8b5	0.03319617
130	0xbf7da161	-0.9907437
131	0x3e1ebb5d	0.15501161
132	0xbdea4ed5	-0.11440817
133	0x3e2b3aee	0.16721699
134	0xbf5b027e	-0.8555068
135	0xbf8467f0	-1.0344219
136	0xc008abdb	-2.1354892
137	0xbf3743be	-0.7158774
138	0xc03f1e35	-2.9862187
139	0x3f8c3ad1	1.0955449
140	0xbefbb096	-0.49158162
141	0xc086f7a7	-4.217731
142	0xbfc07abb	-1.5037454
143	0x3fa377de	1.2770956
144	0xc01062e1	-2.256035
145	0xbf352c45	-0.70770675
146	0x3fc406a0	1.5314522
147	0xbe7ce398	-0.24696195
148	0x3f09dac2	0.5384942
149	0x3ec65207	0.38734457
150	0x3edb7248	0.42860627
151	0xbf1be534	-0.6089661
152	0xbf988dcc	-1.1918273
153	0x3ff31087	1.8989419
154	0xc00f1353	-2.2355545
155	0x3f1585ad	0.584071
156	0x4003f0ff	2.0615842
157	0xbfca1377	-1.578719
158	0xbf055d97	-0.5209593
159	0x3e3cbc9e	0.18431327
160	0x3f238520	0.6387501
161	0x3f961da2	1.1727793
162	0x3faa3fed	1.3300759
163	0xbf80d318	-1.0064421
164	0x408b057d	4.34442
165	0x3f147814	0.57995725
166	0x3ee6d2e5	0.45082775
167	0xbfa8f778	-1.3200521
168	0x400ceddb	2.2020175
169	0x3f849eb8	1.0360937
170	0xc0bcc95e	-5.899581
171	0x3e14efa3	0.14544539
172	0xbe3a5a30	-0.18198466
173	0xc1487361	-12.528169
174	0x3f97730d	1.1831986
175	0x3f6bc834	0.9210236
176	0xbf43ce87	-0.7648701
177	0xbe91268a	-0.28349715
178	0x3db28d67	0.087183766
179	0x3f872028	1.0556688
180	0x3fa4dc1e	1.2879674
181	0x3eb57ab0	0.35445166
182	0x4076e8d1	3.85796
183	0x40b1af59	5.5526547
184	0x3f74a757	0.9556784
185	0xc0e1f3b6	-7.061
186	0x3f2b3902	0.6688386
187	0xbfb9f3da	-1.4527543
188	0x3ee72fb7	0.4515359
189	0x40a5e69c	5.1844006
190	0xbd9fb0c7	-0.077973895
191	0x3f07ccd5	0.53046924
192	0x3ec87672	0.39152867
193	0xbe025cfe	-0.12730786
194	0x3f1e549a	0.6184784
195	0x3e9fda3c	0.31221187
196	0xc043c29e	-3.0587535
197	0xbeb5574e	-0.3541817
198	0xbfdb85ee	-1.7150247
199	0x3df53c67	0.119744115
200	0x3f174a3b	0.5909764
201	0xbe971dc6	-0.29514903
202	0xbf771fa5	-0.9653266
203	0xc0363c8e	-2.847446
204	0x3b2c231a	0.002626604
205	0xbf58570c	-0.84507823
206	0x3fc17761	1.5114557
207	0x3d254ef9	0.040358517
208	0xbdfcebd1	-0.12349666
209	0xbf1794a8	-0.59211206
210	0x3eff5721	0.49871162
211	0x3f7811f6	0.96902406
212	0x3f19d688	0.60092974
213	0x3d84f5e0	0.064922094
214	0xbfa74995	-1.306933
215	0xbfd5041a	-1.6641877
216	0x3eed272c	0.46318948
217	0x3dc36cbb	0.09542223
218	0xbf1d3588	-0.6140981
219	0xbf1bf275	-0.60916835
220	0x3f41438e	0.75493705
221	0xbf87cb91	-1.0608999
222	0x3d584bbc	0.0528066
223	0xbee6d245	-0.45082298
224	0xbf1d9b8f	-0.6156549
225	0xbd9d4568	-0.07679254
226	0x3f40f4aa	0.7537333
227	0x3e8dd279	0.2769964
228	0xbfe11406	-1.7584236
229	0x403e58a9	2.9741614
230	0xbf56c0b6	-0.83887804
231	0x3f57e0ae	0.8432721
232	0xbf85201a	-1.0400422
233	0x3e252f40	0.16131306
234	0xc00c8daa	-2.1961465
235	0xbf03b02c	-0.5144069
236	0x3e9b9df5	0.3039395
237	0x3f49028a	0.785195
238	0xbe7149ec	-0.23563355
239	0x3fae6c00	1.3626709
240	0x4085bf3c	4.179594
241	0x3eb72d77	0.35776874
242	0xc11f9be8	-9.975563
243	0x3e6975aa	0.22798792
244	0xbec84d82	-0.39121634
245	0x4048efa1	3.1396258
246	0xc00ce159	-2.2012541
247	0xbed97414	-0.42471373
248	0x3dacf3fb	0.08444973
249	0x3f8100ab	1.0078329
250	0x3fcc967d	1.5983425
251	0xbfd2c173	-1.6465286
252	0x3e3a77f4	0.18209821
253	0x3da6b85e	0.08140634
254	0x3edb9ad1	0.42891553
255	0xbf423b65	-0.7587188

net.2.bias f4 [32]
0	0x3eb45486	0.35220736
1	0xbf0dbe56	-0.55368555
2	0xc07b7adb	-3.9293735
3	0xbf012742	-0.5045053
4	0xbdcd8a7d	-0.1003618
5	0xbf10193b	-0.562885
6	0xbe93a2a8	-0.28835034
7	0xbf35c535	-0.7100404
8	0x3e9d86a7	0.30766794
9	0x3c6a2690	0.014291421
10	0xbf51aeca	-0.8190733
11	0x3dae6ca0	0.08516812
12	0x3e88ba39	0.26704577
13	0xbf2a68d7	-0.6656622
14	0xbda8021b	-0.082035266
15	0xc022314f	-2.5342596
16	0x3ebc84a6	0.36819953
17	0xbeba6972	-0.36408573
18	0xc0ae2655	-5.442179
19	0x3e95fc9b	0.29294285
20	0x3e7566d1	0.23965003
21	0xbdcbfe68	-0.099606335
22	0x3d79b0ce	0.06095963
23	0xbdaf64e8	-0.08564168
24	0xbea5de49	-0.32396153
25	0x3edba3a2	0.4289828
26	0xbe37b085	-0.1793843
27	0xbf71d3ba	-0.94463694
28	0xbf371fbf	-0.71532816
29	0x3dd10a51	0.10207046
30	0xbdf2573f	-0.11833047
31	0x3e56aefd	0.2096519

net.4.weight f4 [1, 32, 1, 1]
0	0x40038dab	2.0555217
1	0xbe75dcce	-0.24010012
2	0xc10a27f8	-8.634758
3	0xbe13a638	-0.14418876
4	0xbca4dd52	-0.020125065
5	0xbe91174b	-0.28338084
6	0xbe86af5f	-0.26305673
7	0xbe68de81	-0.22741129
8	0xbe5908bf	-0.21194743
9	0x3dc69658	0.096966445
10	0xbe51efde	-0.20501658
11	0x3f881e3b	1.0634226
12	0x3fc8118b	1.5630354
13	0xbded3c1e	-0.11583732
14	0xbe56d422	-0.2097936
15	0xc12e2cb8	-10.885918
16	0x3e09d45e	0.13459918
17	0xbe67c6f0	-0.22634482
18	0xc113cffb	-9.2382765
19	0x3e732be1	0.23747207
20	0x3db91a06	0.09038167
21	0x3c8f5d98	0.017500684
22	0xbe50f1ab	-0.20404689
23	0x3e1a5f9e	0.15075538
24	0xbe249cd0	-0.16075444
25	0x3deb1715	0.11479012
26	0xbe60cdec	-0.21953553
27	0xbe19cfb1	-0.15020634
28	0xbe59aaa8	-0.21256506
29	0xbe077a8c	-0.13230342
30	0xbc86e3fe	-0.016466137
31	0xbe1687d5	-0.14700253
