Maze models/maze_model_bad.pth (torch, 22521 bytes, 5 tensors)

net.0.weight f4 [16, 1, 3, 3]
0	0xbc92ffbe	-0.017944213
1	0xbcd2ed39	-0.025747882
2	0xbc140409	-0.009034165
3	0x3f3dad61	0.7409268
4	0x3da59a87	0.080861144
5	0xbfbad866	-1.459729
6	0xbf3d0581	-0.73836523
7	0x3d340510	0.04395014
8	0x3fbbf28c	1.4683394
9	0xbd8cbbbe	-0.068717465
10	0x3d46f971	0.04857773
11	0xbf02cf93	-0.51097983
12	0x3f4b4b0f	0.79411405
13	0xbee31590	-0.44352388
14	0xbdcfa777	-0.10139363
15	0x3f186f1d	0.59544545
16	0xbf144740	-0.5792122
17	0xbe7f7b32	-0.24949339
18	0x3f6be35f	0.92143816
19	0xbeb96dda	-0.36216623
20	0xbc9442af	-0.018098203
21	0xbf23b73d	-0.63951474
22	0x3f72320a	0.94607604
23	0x3e96675f	0.2937574
24	0xbe59e5a0	-0.21279001
25	0xbd116891	-0.035500113
26	0x3ef90787	0.48638555
27	0xbedc5338	-0.4303224
28	0xbf8075f1	-1.0035993
29	0xbe3e3324	-0.18574196
30	0xbf4e6490	-0.80622196
31	0x3f4047b3	0.75109404
32	0x3de5633e	0.112005696
33	0x3e5d8ad8	0.21634996
34	0x3eb4c4e3	0.35306463
35	0x3e14d089	0.14532675
36	0x3e12588b	0.14291589
37	0xbea3c628	-0.3198712
38	0xbda38514	-0.07984367
39	0xbeb1b92b	-0.34711584
40	0xbf3f78e7	-0.7479386
41	0xbec6de48	-0.38841462
42	0x3ea8ec6d	0.3299288
43	0xbece4548	-0.40287232
44	0x3ecce73b	0.40020165
45	0xbf2266d8	-0.6343818
46	0xbd9b3cab	-0.07579931
47	0xbe854101	-0.26026157
48	0xbeea9184	-0.45814145
49	0xbf0b9971	-0.5453101
50	0xbf9a6eb5	-1.2065035
51	0x3ec6cb80	0.38827133
52	0x3ed29d6f	0.41135737
53	0xbe14c8f9	-0.1452979
54	0x3e709dbb	0.2349767
55	0x3f7479e4	0.9549849
56	0x3e9a0dfc	0.30088794
57	0x3cf63561	0.03005475
58	0xbfbd25b9	-1.4777137
59	0x3e871721	0.26384833
60	0xbf0907bc	-0.53527427
61	0x3da9af9c	0.08285448
62	0xbf993ae0	-1.1971092
63	0xbd3b66c8	-0.045752317
64	0xbc220aa0	-0.0098902285
65	0x3b7f2880	0.0038934052
66	0xbe8e7057	-0.27820083
67	0xbe4ac960	-0.19803381
68	0xbe54108e	-0.2070944
69	0x3d087ea8	0.033323914
70	0xbdb47a90	-0.088124394
71	0xbe8c0a4f	-0.27351615
72	0x3f1b13a2	0.6057683
73	0xbe9078db	-0.28217205
74	0xbe718d11	-0.23588969
75	0xbe818fc8	-0.2530501
76	0xbf0f543a	-0.55987895
77	0xbeafd48f	-0.34341857
78	0x3e53a834	0.20669633
79	0x3e59d726	0.21273479
80	0xbf076782	-0.52892315
81	0xbe5c60b1	-0.2152126
82	0x3e20d4b4	0.1570614
83	0xbf2599ec	-0.6468799
84	0x3dd857d0	0.10563624
85	0xbf1e4f3b	-0.61839646
86	0x3eeee98b	0.46662554
87	0xbe0711bf	-0.13190363
88	0xbf1e3bbb	-0.6180989
89	0xbf0bfa49	-0.5467878
90	0xbee5dcf7	-0.44895145
91	0xbfa96c2f	-1.323614
92	0x3c7a3c64	0.015273187
93	0x3e523b28	0.20530379
94	0xbf5bfb6a	-0.859305
95	0x3e934416	0.28762883
96	0xbf1d81ea	-0.6152636
97	0xbf944347	-1.1583031
98	0xbe68bd81	-0.2272854
99	0xbef7ddf9	-0.4841154
100	0xbf9838ce	-1.1892335
101	0x3e857a0d	0.2606968
102	0xbf6c067c	-0.92197394
103	0x3febb6c1	1.8415147
104	0xbfc3db1f	-1.5301245
105	0xbd484da7	-0.04890218
106	0xbfbaefeb	-1.4604467
107	0xbe64639a	-0.2230362
108	0x3f24aad0	0.6432314
109	0x3d7437c9	0.059623513
110	0x3ef1928d	0.47182122
111	0x3cc5a41b	0.024126103
112	0xbf194397	-0.5986876
113	0x3f782061	0.96924406
114	0xbf025504	-0.50910974
115	0x3f6244ef	0.88386434
116	0xbebe4528	-0.37162137
117	0xbf870cd2	-1.0550787
118	0x3f02a9de	0.51040447
119	0xbf0b196b	-0.5433566
120	0xbde0bee6	-0.10973911
121	0xbf8fe9d8	-1.1243238
122	0x3ebc3422	0.36758524
123	0x3e5cd74b	0.21566503
124	0x3ec6d9b8	0.3883798
125	0x3e4fb355	0.20283253
126	0xbed1eaff	-0.409996
127	0x3ea6c545	0.3257238
128	0xbecd1532	-0.40055233
129	0x3eebe244	0.46071064
130	0xbea58f5c	-0.32335937
131	0x3ea3d6e9	0.319999
132	0xbf19fc0b	-0.6015021
133	0x3ef45d33	0.47727355
134	0xbf19f182	-0.60134137
135	0xbe8d0a16	-0.27546757
136	0x3f6aace8	0.91670084
137	0x3d5e0437	0.05420324
138	0x3f39b54f	0.7254228
139	0x3ec58892	0.38580757
140	0x3ed1188b	0.40839037
141	0xbee78ed6	-0.45226163
142	0xbe72878a	-0.23684517
143	0x3f2c7816	0.67370737

net.0.bias f4 [16]
0	0xbf6a278c	-0.91466594
1	0xbdeaac4d	-0.11458645
2	0xbf8eac2d	-1.1146294
3	0x3d900529	0.07032234
4	0x3e55a972	0.2086542
5	0x3ee983e1	0.45608428
6	0x3db387de	0.08766149
7	0xbe7936e8	-0.24337351
8	0x3e8f78bc	0.280218
9	0x3f39ed64	0.72627854
10	0x3f78fa71	0.97257143
11	0x3f43b2ed	0.76444894
12	0xbfad00d7	-1.3515881
13	0x3e41c9bd	0.18924613
14	0x3f00473c	0.50108695
15	0xbf9996a1	-1.1999093

net.2.weight f4 [32, 16, 3, 3]
0	0x39b4c6ea	0.00034480478
1	0x3d3c6e6d	0.046003748
2	0xbd4c2b50	-0.049845994
3	0xbc804a62	-0.015660468
4	0x3ca3451c	0.019930415
5	0x3c6266cd	0.013818455
6	0x3b76dc6c	0.0037668003
7	0x3d0fcf04	0.035109535
8	0xbd8177ab	-0.06321653
9	0xbd033e17	-0.032041635
10	0xbd0c81bf	-0.034303423
11	0xbdb31c5b	-0.08745643
12	0x3c82a5c7	0.01594819
13	0xbcadd507	-0.021219743
14	0xbda88dea	-0.08230193
15	0x3c29dbd5	0.010367353
16	0x3c7ebaa4	0.015547428
17	0x3cbe367d	0.023219341
18	0x3c4387a5	0.011934196
19	0x3d11bd37	0.03558084
20	0x3d19d6df	0.037558433
21	0xbd5148c5	-0.05109479
22	0x3d1fa0d6	0.038971744
23	0xbce54a34	-0.027989484
24	0x3ceae519	0.028673695
25	0x3d0ed49d	0.034870733
26	0xbd9b6b21	-0.075887926
27	0x3ccfaaa2	0.025349919
28	0xbd8ade8b	-0.06780728
29	0xbd6910d6	-0.05690082
30	0xbddca83c	-0.10774276
31	0xbd8ab95d	-0.067736365
32	0x3c843249	0.01613726
33	0x3ca8405b	0.0205385
34	0xbd179aa3	-0.037012707
35	0x3cf50004	0.029907234
36	0x3cff0492	0.031130109
37	0x3d196b89	0.03745607
38	0xbc8d6e48	-0.0172645
39	0x3d3336e3	0.043753516
40	0x3bd25f70	0.0064200684
41	0xbc97b9b9	-0.018521177
42	0x3cd0cccb	0.025488278
43	0xbcd7bcb4	-0.026335098
44	0xbc84423d	-0.016144866
45	0xbd8c7bc8	-0.06859547
46	0xbd171e85	-0.03689434
47	0xbda01ba7	-0.07817774
48	0x3d5ebe03	0.054380428
49	0xbca76fec	-0.02043911
50	0xbda155b0	-0.07877672
51	0xbdac224b	-0.08404978
52	0x3cfbfc6b	0.03076001
53	0xbda21b12	-0.079153195
54	0xbb210c67	-0.0024574043
55	0xbdbde480	-0.092720985
56	0xbdc54eb8	-0.09634155
57	0xbb97588f	-0.0046187113
58	0x3c2a3969	0.010389664
59	0xbdcfd3c0	-0.1014781
60	0xbdb85976	-0.09001438
61	0xbd953d80	-0.07287121
62	0x3ce04c00	0.02737999
63	0xbb5e1800	-0.0033888817
64	0x3d2cfcaa	0.042233147
65	0xbd2174b8	-0.039417952
66	0xbccbbd60	-0.024870574
67	0xbda0deca	-0.07854994
68	0x3d238192	0.03991849
69	0xbbce8080	-0.0063019395
70	0x3ccbfd80	0.024901152
71	0x3cffd114	0.031227626
72	0xbc8b7a1a	-0.017025996
73	0xbd9b470f	-0.07581913
74	0xbdc28588	-0.09498125
75	0xbd91eed5	-0.07125632
76	0x3b7e8e62	0.003884219
77	0xbd6135f1	-0.054983083
78	0xbc404cbd	-0.011737046
79	0x3c977d64	0.018492408
80	0xbd234f9a	-0.039870836
81	0xbd48c04a	-0.049011506
82	0xbd6c55b0	-0.057698905
83	0xbc120589	-0.0089124525
84	0xbdb17c2d	-0.08666263
85	0xbda6b93b	-0.08140799
86	0x3b41c8cb	0.0029569145
87	0x3d68fc60	0.05688131
88	0xbd93148d	-0.07181654
89	0xbdc1fae8	-0.09471685
90	0xbcb73e23	-0.022368496
91	0xbdaae57e	-0.083445534
92	0xbcceac10	-0.02522853
93	0xbd22ea1e	-0.039774053
94	0x3d5772f2	0.052599855
95	0x3c2818ab	0.010259788
96	0x3b1d4269	0.0023995882
97	0xbdabecc6	-0.0839477
98	0xbd53398c	-0.051568553
99	0x3ceffcbc	0.029295318
100	0xbd64d9b1	-0.05587167
101	0x3d3a8551	0.045537297
102	0xbda8164c	-0.08207378
103	0xbd3e0a1a	-0.046396352
104	0x3d79e148	0.06100586
105	0xbcb29155	-0.021797815
106	0x3c8661b6	0.016404014
107	0x3d1790aa	0.037003197
108	0x3d434ab5	0.047678668
109	0xbd676231	-0.056490127
110	0xbc818a35	-0.015812973
111	0xbda28166	-0.07934837
112	0xbd911c55	-0.07085482
113	0xbd74b52f	-0.059743103
114	0x3d0ca053	0.034332585
115	0x3d1e24f7	0.03860947
116	0xbda35729	-0.07975609
117	0xbc63bc64	-0.013899896
118	0xbdb2a0a6	-0.087220475
119	0x3b8a64a6	0.004223424
120	0xbd5820e8	-0.052765757
121	0xbda44811	-0.08021558
122	0xbc8486da	-0.016177583
123	0x3d277b54	0.0408891
124	0xbc8503de	-0.016237196
125	0x3d6765b0	0.05649346
126	0xbd98e020	-0.074646235
127	0xbdc3730a	-0.09543426
128	0x3b55f1c4	0.0032645324
129	0xbdeb6c5a	-0.11495276
130	0xbd4f341d	-0.05058681
131	0x3d07d436	0.033161364
132	0xbc48815e	-0.012237875
133	0xbd872c85	-0.06600288
134	0xbb08d28e	-0.0020877453
135	0x3d42cae4	0.047556773
136	0xbc013621	-0.0078864405
137	0x3ce63b2c	0.028104387
138	0xbce63d61	-0.02810544
139	0xbb9650ff	-0.004587292
140	0xbdb3eab8	-0.087850034
141	0xbc9aab60	-0.018880546
142	0xbd95f202	-0.0732155
143	0xbd7bd004	-0.061477676
144	0x3c931fc4	0.017959483
145	0xbd21846b	-0.039432924
146	0xbd2df380	-0.042468548
147	0x3ccda88e	0.025104787
148	0xbda67e5c	-0.0812957
149	0x3c3c94e6	0.0115101095
150	0xbdc1fb49	-0.09471757
151	0xbd71cb51	-0.05903179
152	0xbd6a12db	-0.05714689
153	0xbc4561fa	-0.012047285
154	0xbda3cc3b	-0.07997938
155	0x3ab51868	0.0013816478
156	0xbd0d8bf9	-0.034557316
157	0xbd688454	-0.056766823
158	0xbc3cfa6b	-0.011534314
159	0xbd7794f2	-0.06044478
160	0xbd5207ad	-0.05127685
161	0xbc5d387e	-0.013502238
162	0xbc302ba7	-0.010752595
163	0x3ba181a5	0.004928785
164	0xbc546be6	-0.012965178
165	0xbd16d2c7	-0.036822107
166	0xbd55d93b	-0.05220912
167	0x3d66f2f6	0.05638405
168	0xbd9b7689	-0.07590968
169	0xbcb96a54	-0.022633709
170	0x3d7e2475	0.062046487
171	0xbd9a8c03	-0.07546236
172	0xbd79be80	-0.06097269
173	0x3aeb6c8e	0.0017961429
174	0xbc410745	-0.011781518
175	0x3ba6513a	0.005075601
176	0x3d187eb3	0.037230205
177	0x3d6de867	0.058082964
178	0xbba3fad4	-0.0050042663
179	0x3d231b9e	0.03982126
180	0xbd6f32f1	-0.05839819
181	0xbc4bcea0	-0.0124394
182	0xbdcb83ae	-0.09937225
183	0xbc57ff3b	-0.01318341
184	0xbdb917a7	-0.090377145
185	0xbcdb306b	-0.026756486
186	0xbd00535a	-0.03132949
187	0x3d8490df	0.064729445
188	0xbd34b92f	-0.044121917
189	0xbd37a1a6	-0.044831894
190	0xbcda4e71	-0.026648732
191	0x3d5a87d9	0.05335221
192	0xbd72ecda	-0.05930791
193	0x3ca23dc4	0.019804843
194	0xbd671f76	-0.056426488
195	0xbd8d6bf4	-0.06905356
196	0xbd120194	-0.035646036
197	0xbd308cda	-0.043103077
198	0xbd87a55b	-0.06623336
199	0xbd56a097	-0.052399244
200	0xbd0efa79	-0.034906838
201	0xbc567688	-0.0130897835
202	0x3c7fbbee	0.015608771
203	0x3bd0dac4	0.006373735
204	0x3d7344c5	0.059391756
205	0xbd24e005	-0.040252704
206	0xbda0c5cf	-0.07850229
207	0xbc3d5680	-0.011556268
208	0x3d584212	0.052797385
209	0xbd9bd056	-0.07608096
210	0x3d184bc8	0.037181646
211	0x3d43d272	0.04780812
212	0x3d6e9922	0.058251508
213	0x3d932a05	0.07185749
214	0xbb84e030	-0.0040550455
215	0xbd81c3b2	-0.06336154
216	0xbb0d3994	-0.0021549212
217	0x3cf54c8c	0.029943727
218	0x3d553b7a	0.052058674
219	0xbdbb5053	-0.0914618
220	0xbcc15dc4	-0.023604281
221	0x3cf43a3b	0.029812923
222	0xbd06c177	-0.032899346
223	0xbca20aa8	-0.019780472
224	0x3c273136	0.010204604
225	0x3d370a22	0.044687398
226	0xbd33b5c2	-0.04387451
227	0xbd95b23e	-0.073093876
228	0xbda6750f	-0.08127796
229	0xbd6b8cdc	-0.05750738
230	0xbdc05d91	-0.093928464
231	0x3d5867ff	0.052833553
232	0x3c8585e2	0.016299192
233	0x3d3cbe01	0.04607964
234	0xbd53ee76	-0.051741086
235	0xbd513fa4	-0.051086083
236	0xbda1bf5e	-0.078978285
237	0xbcbdf6df	-0.023189006
238	0x3d6d289f	0.057900067
239	0xbd251aa8	-0.040308625
240	0xbd5ce814	-0.053932264
241	0x3d1087ad	0.03528564
242	0xbd71622a	-0.058931507
243	0x3cadb10e	0.02120259
244	0xbdb672a7	-0.08908587
245	0xbc9cddf1	-0.019148799
246	0x3d28aeeb	0.04118244
247	0x3d816781	0.0631857
248	0x3bda514c	0.0066625234
249	0x3d53a5b4	0.0516717
250	0x3d41af13	0.047286104
251	0xbd8510a4	-0.064973146
252	0x3bc5eb0a	0.0060399817
253	0x3b70a354	0.0036718445
254	0xbcca5fd2	-0.024703894
255	0x3c4c03a8	0.012452044

net.2.bias f4 [32]
0	0xbc831c65	-0.01600475
1	0xbda9216d	-0.082583286
2	0xc0f89f5b	-7.7694526
3	0x3e1d65ac	0.15370816
4	0xbdcab9d9	-0.09898729
5	0x3e8c9288	0.27455544
6	0xbe5a0023	-0.21289115
7	0xbc7253a8	-0.014790453
8	0x3f897899	1.0739928
9	0x3f3666bf	0.7125053
10	0x3f47f896	0.7811369
11	0xbdcf375c	-0.10117981
12	0xc026d321	-2.6066363
13	0x3f7860a6	0.97022474
14	0xbdc615e5	-0.09672145
15	0x3f337a38	0.70108366
16	0xbd68077a	-0.056647755
17	0xbf557a27	-0.83389515
18	0xbf248700	-0.64268494
19	0xbf2a1fa3	-0.66454524
20	0xbfb9381e	-1.4470251
21	0xbdcd9379	-0.10037894
22	0xbdd68512	-0.104746
23	0xbfc3ea54	-1.5305886
24	0x3cc13489	0.023584621
25	0xbf933db8	-1.150321
26	0xbf5ab64e	-0.85434425
27	0xbd713b0b	-0.0588942
28	0x3f58bcca	0.8466307
29	0x3e8667d2	0.26251084
30	0xbf385fc6	-0.7202114
31	0x3f8909e7	1.0706147

net.4.weight f4 [1, 32, 1, 1]
0	0x3d82186e	0.06352316
1	0x3dce165d	0.10062859
2	0xc15c4a52	-13.768145
3	0xbe97dd4a	-0.29661018
4	0xbbaaecfa	-0.005216238
5	0xbecaab0f	-0.39583632
6	0x3eac02ae	0.33595794
7	0x3cca20c7	0.024673833
8	0xbe584ace	-0.21122286
9	0xbe5035e8	-0.20333064
10	0xbe979dfb	-0.29612717
11	0x3c131b31	0.008978651
12	0xc1101eea	-9.007547
13	0xbe846e82	-0.2586556
14	0xbd6abcd0	-0.057308972
15	0xbe681987	-0.22665988
16	0x3dcfffab	0.10156187
17	0x3f461db6	0.77389085
18	0x3ed66adb	0.418784
19	0x3e487db4	0.19579202
20	0x3fa9cbe5	1.3265349
21	0x3e0cc854	0.13748294
22	0x3e05248d	0.13002224
23	0x400b97d0	2.181141
24	0x3dee918f	0.11648857
25	0x3e290420	0.1650548
26	0x3f6eebcf	0.93328565
27	0x3ceb2306	0.028703224
28	0xbe260f12	-0.16216686
29	0xbcd49826	-0.025951456
30	0x3e3f3cc3	0.18675523
31	0xbe315366	-0.1731697
